#+TITLE: Softcomputing



* Model

CNN-Model für 512x32 Bilder mit einer großen geteielten Dense-Layeren trainiert mit 200 Ordnern.



** Model-Summary

| Layer (type)                   | Output Shape         |  Param #   | Connected to          |
|--------------------------------+----------------------+------------+-----------------------|
| input_1 (InputLayer)           | [(None, 32, 512, 1)] | 0          |                       |
| conv2d (Conv2D)                | (None, 28, 508, 32)  | 832        |     input_1           |
| max_pooling2d (MaxPooling2D)   | (None, 14, 254, 32)  | 0          |     conv2d            |
| conv2d_1 (Conv2D)              | (None, 10, 250, 64)  | 51264      |     max_pooling2d     |
| max_pooling2d_1 (MaxPooling2D) | (None, 5, 125, 64)   | 0          |     conv2d_1          |
| conv2d_2 (Conv2D)              | (None, 3, 123, 128)  | 73856      |     max_pooling2d_1   |
| max_pooling2d_2 (MaxPooling2D) | (None, 3, 61, 128)   | 0          |     conv2d_2          |
| conv2d_3 (Conv2D)              | (None, 1, 59, 256)   | 295168     |     max_pooling2d_2   |
| max_pooling2d_3 (MaxPooling2D) | (None, 1, 29, 256)   | 0          |     conv2d_3          |
| flatten (Flatten)              | (None, 7424)         | 0          |     max_pooling2d_3   |
| dense (Dense)                  | (None, 7424)         | 55.123.200 | flatten               |
| 16 x output  (Dense)           | (None, 63)           |    467.775 | dense                 |

Total params: 63,028,720

Trainable params: 63,028,720

Non-trainable params: 0

** Evaluation

1896/1896 - 40s - loss: 18.8951 - output_0_loss: 1.6968 - output_1_loss: 1.3248 - output_2_loss: 1.6521 - output_3_loss: 1.8579 - output_4_loss: 2.0133 - output_5_loss: 2.0746 - output_6_loss: 1.9590 - output_7_loss: 1.7425 - 
output_8_loss: 1.4238 - output_9_loss: 1.0754 - output_10_loss: 0.7932 - output_11_loss: 0.5486 - output_12_loss: 0.3379 - output_13_loss: 0.2080 - output_14_loss: 0.1216 - output_15_loss: 0.0656 - 
…
