#+TITLE: Softcomputing



* Model

CNN-Model für 256x32 Bilder mit zusätzlicher Dense-Layer für jedes Output trainiert mit 200 Ordnern.



** Model-Summary

| Layer (type)                   | Output Shape       | Param # | Connected to    |
|--------------------------------+--------------------+---------+-----------------|
| conv2d (Conv2D)                | (None, 28, 28, 8)  |     208 |                 |
| max_pooling2d (MaxPooling2D)   | (None, 14, 14, 8)  |       0 | conv2d          |
| conv2d_1 (Conv2D)              | (None, 10, 10, 16) |    3216 | max_pooling2d   |
| max_pooling2d_1 (MaxPooling2D) | (None, 5, 5, 16)   |       0 | conv2d_1        |
| flatten (Flatten)              | (None, 400)        |       0 | max_pooling2d_1 |
| dense_1 (Dense)                | (None, 62)         |   24862 | flatten         |


Total params: 28,286

Trainable params: 28,286

Non-trainable params: 0


** Evaluation

394/394 - 1s - loss: 1.0499 - accuracy: 0.8026

** Trainingsausgabe

Epoch 1/10

1576/1576 [==============================] - 8s 5ms/step - loss: 1.5290 - accuracy: 0.6170

Epoch 2/10

1576/1576 [==============================] - 8s 5ms/step - loss: 0.5172 - accuracy: 0.8327

Epoch 3/10

…
