#+TITLE: Softcomputing



* Model

CNN-Model für 256x32 Bilder mit zusätzlicher Dense-Layer für jedes Output trainiert mit 200 Ordnern.



** Model-Summary

| Layer (type)      | Output Shape | Param # | Connected to |
|-------------------+--------------+---------+--------------|
| flatten (Flatten) | (None, 1024) |       0 |              |
| dense (Dense)     | (None, 1024) | 1049600 | flatten      |
| dense_1 (Dense)   | (None, 1024) | 1049600 | dense        |
| dense_2 (Dense)   | (None, 1024) | 1049600 | dense_1      |
| dense_3 (Dense)   | (None, 1024) | 1049600 | dense_2      |
| dense_4 (Dense)   | (None, 1024) | 1049600 | dense_3      |
| dense_5 (Dense)   | (None, 62)   |   63550 | dense_4      |


Total params: 5,311,550

Trainable params: 5,311,550

Non-trainable params: 0

** Evaluation

394/394 - 1s - loss: 1.1966 - accuracy: 0.7081

** Trainingsausgabe

Epoch 1/5

1576/1576 [==============================] - 15s 10ms/step - loss: 2.5488 - accuracy: 0.2905

Epoch 2/5

1576/1576 [==============================] - 15s 9ms/step - loss: 0.9011 - accuracy: 0.7091

Epoch 3/5
…
