#+TITLE: Softcomputing



* Model

CNN-Model für 256x32 Bilder mit zusätzlicher Dense-Layer für jedes Output trainiert mit 200 Ordnern.



** Model-Summary

| Layer (type)                   | Output Shape       | Param # | Connected to    |
|--------------------------------+--------------------+---------+-----------------|
| conv2d (Conv2D)                | (None, 28, 28, 8)  |     208 |                 |
| max_pooling2d (MaxPooling2D)   | (None, 14, 14, 8)  |       0 | conv2d          |
| conv2d_1 (Conv2D)              | (None, 10, 10, 16) |    3216 | max_pooling2d   |
| max_pooling2d_1 (MaxPooling2D) | (None, 5, 5, 16)   |       0 | conv2d_1        |
| conv2d_2 (Conv2D)              | (None, 3, 3, 16)   |    2320 | max_pooling2d   |
| max_pooling2d_2 (MaxPooling2D) | (None, 1, 1, 16)   |       0 | conv2d_1        |
| flatten (Flatten)              | (None, 16)         |       0 | max_pooling2d_1 |
| dense (Dense)                  | (None, 62)         |   24862 | flatten         |

Total params: 358,206
Trainable params: 358,206
Non-trainable params: 0

** Evaluation

394/394 - 2s - loss: 1.1513 - accuracy: 0.7548

** Trainingsausgabe

Epoch 1/10

1576/1576 [==============================] - 12s 7ms/step - loss: 2.0444 - accuracy: 0.4336

Epoch 2/10

1576/1576 [==============================] - 12s 8ms/step - loss: 0.6965 - accuracy: 0.7593

Epoch 3/10

…
