#+TITLE: Softcomputing

* Model
CNN-Model für 256x32 Bilder mit zusätzlicher Dense-Layer für jedes Output trainiert mit 200 Ordnern.

** Model-Summary
| Layer (type)                   | Output Shape         |  Param # | Connected to          |
|--------------------------------+----------------------+----------+-----------------------|
| input_1 (InputLayer)           | [(None, 32, 256, 1)] |        0 |                       |
| conv2d (Conv2D)                | (None, 28, 252, 32)  |      832 | input_1[0][0]         |
| max_pooling2d (MaxPooling2D)   | (None, 14, 126, 32)  |        0 | conv2d[0][0]          |
| conv2d_1 (Conv2D)              | (None, 10, 122, 64)  |    51264 | max_pooling2d[0][0]   |
| max_pooling2d_1 (MaxPooling2D) | (None, 5, 61, 64)    |        0 | conv2d_1[0][0]        |
| conv2d_2 (Conv2D)              | (None, 3, 59, 128)   |    73856 | max_pooling2d_1[0][0] |
| max_pooling2d_2 (MaxPooling2D) | (None, 3, 29, 128)   |        0 | conv2d_2[0][0]        |
| conv2d_3 (Conv2D)              | (None, 1, 27, 256)   |   295168 | max_pooling2d_2[0][0] |
| max_pooling2d_3 (MaxPooling2D) | (None, 1, 13, 256)   |        0 | conv2d_3[0][0]        |
| flatten (Flatten)              | (None, 3328)         |        0 | max_pooling2d_3[0][0] |
| dense (Dense)                  | (None, 3328)         | 11078912 | flatten[0][0]         |
| dense_1 (Dense)                | (None, 3328)         | 11078912 | flatten[0][0]         |
| dense_2 (Dense)                | (None, 3328)         | 11078912 | flatten[0][0]         |
| dense_3 (Dense)                | (None, 3328)         | 11078912 | flatten[0][0]         |
| dense_4 (Dense)                | (None, 3328)         | 11078912 | flatten[0][0]         |
| dense_5 (Dense)                | (None, 3328)         | 11078912 | flatten[0][0]         |
| dense_6 (Dense)                | (None, 3328)         | 11078912 | flatten[0][0]         |
| dense_7 (Dense)                | (None, 3328)         | 11078912 | flatten[0][0]         |
| dense_8 (Dense)                | (None, 3328)         | 11078912 | flatten[0][0]         |
| dense_9 (Dense)                | (None, 3328)         | 11078912 | flatten[0][0]         |
| dense_10 (Dense)               | (None, 3328)         | 11078912 | flatten[0][0]         |
| dense_11 (Dense)               | (None, 3328)         | 11078912 | flatten[0][0]         |
| dense_12 (Dense)               | (None, 3328)         | 11078912 | flatten[0][0]         |
| dense_13 (Dense)               | (None, 3328)         | 11078912 | flatten[0][0]         |
| dense_14 (Dense)               | (None, 3328)         | 11078912 | flatten[0][0]         |
| dense_15 (Dense)               | (None, 3328)         | 11078912 | flatten[0][0]         |
| output_0 (Dense)               | (None, 63)           |   209727 | dense[0][0]           |
| output_1 (Dense)               | (None, 63)           |   209727 | dense_1[0][0]         |
| output_2 (Dense)               | (None, 63)           |   209727 | dense_2[0][0]         |
| output_3 (Dense)               | (None, 63)           |   209727 | dense_3[0][0]         |
| output_4 (Dense)               | (None, 63)           |   209727 | dense_4[0][0]         |
| output_5 (Dense)               | (None, 63)           |   209727 | dense_5[0][0]         |
| output_6 (Dense)               | (None, 63)           |   209727 | dense_6[0][0]         |
| output_7 (Dense)               | (None, 63)           |   209727 | dense_7[0][0]         |
| output_8 (Dense)               | (None, 63)           |   209727 | dense_8[0][0]         |
| output_9 (Dense)               | (None, 63)           |   209727 | dense_9[0][0]         |
| output_10 (Dense)              | (None, 63)           |   209727 | dense_10[0][0]        |
| output_11 (Dense)              | (None, 63)           |   209727 | dense_11[0][0]        |
| output_12 (Dense)              | (None, 63)           |   209727 | dense_12[0][0]        |
| output_13 (Dense)              | (None, 63)           |   209727 | dense_13[0][0]        |
| output_14 (Dense)              | (None, 63)           |   209727 | dense_14[0][0]        |
| output_15 (Dense)              | (None, 63)           |   209727 | dense_15[0][0]        |

Total params: 181,039,344 \n
Trainable params: 181,039,344 \n
Non-trainable params: 0 \n

** Evaluation
1916/1916 - 81s - loss: 24.7355 - \n
output_0_loss: 1.9995 - \n
output_1_loss: 1.6809 - \n
output_2_loss: 1.9995 - \n
output_3_loss: 2.2953 - \n
output_4_loss: 2.4553 - \n
output_5_loss: 2.5818 - \n
output_6_loss: 2.5054 - \n
output_7_loss: 2.3605 - \n
output_8_loss: 1.9611 - \n
…
