#+TITLE: Softcomputing



* Model


CNN-Model für 512x32 Bilder mit 4 großen geteielten Dense-Layeren trainiert mit 200 Ordnern.



** Model-Summary


| Layer (type)                   | Output Shape         |  Param #   | Connected to          |
|--------------------------------+----------------------+------------+-----------------------|
| input_1 (InputLayer)           | [(None, 32, 512, 1)] | 0          |                       |
| conv2d (Conv2D)                | (None, 28, 508, 32)  | 832        |     input_1           |
| max_pooling2d (MaxPooling2D)   | (None, 14, 254, 32)  | 0          |     conv2d            |
| conv2d_1 (Conv2D)              | (None, 10, 250, 64)  | 51264      |     max_pooling2d     |
| max_pooling2d_1 (MaxPooling2D) | (None, 5, 125, 64)   | 0          |     conv2d_1          |
| conv2d_2 (Conv2D)              | (None, 3, 123, 128)  | 73856      |     max_pooling2d_1   |
| max_pooling2d_2 (MaxPooling2D) | (None, 3, 61, 128)   | 0          |     conv2d_2          |
| conv2d_3 (Conv2D)              | (None, 1, 59, 256)   | 295168     |     max_pooling2d_2   |
| max_pooling2d_3 (MaxPooling2D) | (None, 1, 29, 256)   | 0          |     conv2d_3          |
| flatten (Flatten)              | (None, 7424)         | 0          |     max_pooling2d_3   |
| dense (Dense)                  | (None, 7424)         | 55.123.200 | flatten               |
| dense_1 (Dense)                | (None, 7424)         | 55.123.200 | flatten               |
| dense_2 (Dense)                | (None, 7424)         | 55.123.200 | flatten               |
| dense_3 (Dense)                | (None, 7424)         | 55.123.200 | flatten               |
| 16 x output  (Dense)           | (None, 63)           |    467.775 | dense_3               |

Total params: 228,398,320

Trainable params: 228,398,320

Non-trainable params: 0

** Evaluation


1896/1896 - 50s - loss: 18.7721 - output_0_loss: 2.2627 - output_1_loss: 1.5091 - output_2_loss: 1.9178 - output_3_loss: 2.1639 - output_4_loss: 2.1733 - 
output_5_loss: 2.0779 - output_6_loss: 1.8191 - output_7_loss: 1.5201 - output_8_loss: 1.1748 - output_9_loss: 0.8342 - output_10_loss: 0.5579 - output_11_loss: 0.3590 - 
…
