#+TITLE: Softcomputing



* Model

CNN-Model für 256x32 Bilder mit zusätzlicher Dense-Layer für jedes Output trainiert mit 200 Ordnern.



** Model-Summary

| Layer (type)      | Output Shape | Param # | Connected to |
|-------------------+--------------+---------+--------------|
| flatten (Flatten) | (None, 1024) |       0 |              |
| dense (Dense)     | (None, 1024) | 1049600 | flatten      |
| dense_1 (Dense)   | (None, 1024) | 1049600 | dense        |
| dense_2 (Dense)   | (None, 1024) | 1049600 | dense_1      |
| dense_3 (Dense)   | (None, 512)  |  524800 | dense_2      |
| dense_4 (Dense)   | (None, 256)  |  131328 | dense_3      |
| dense_5 (Dense)   | (None, 128)  |   32896 | dense_4      |
| dense_6 (Dense)   | (None, 62)   |    7998 | dense_5      |


Total params: 3,845,822

Trainable params: 3,845,822

Non-trainable params: 0


** Evaluation

394/394 - 1s - loss: 1.2016 - accuracy: 0.7032

** Trainingsausgabe

Epoch 1/5

1576/1576 [==============================] - 12s 8ms/step - loss: 2.8760 - accuracy: 0.2212

Epoch 2/5

1576/1576 [==============================] - 12s 8ms/step - loss: 1.0192 - accuracy: 0.6796

Epoch 3/5
…
