#+TITLE: Softcomputing



* Model

CNN-Model für 256x32 Bilder mit zusätzlicher Dense-Layer für jedes Output trainiert mit 200 Ordnern.



** Model-Summary

| Layer (type)      | Output Shape | Param # | Connected to |
|-------------------+--------------+---------+--------------|
| flatten (Flatten) | (None, 1024) |       0 |              |
| dense (Dense)     | (None, 1024) | 1049600 | flatten      |
| dense_1 (Dense)   | (None, 1024) | 1049600 | dense        |
| dense_2 (Dense)   | (None, 1024) | 1049600 | dense_1      |
| dense_3 (Dense)   | (None, 1024) | 1049600 | dense_2      |
| dense_4 (Dense)   | (None, 1024) | 1049600 | dense_3      |
| dense_5 (Dense)   | (None, 1024) | 1049600 | dense_4      |
| dense_6 (Dense)   | (None, 1024) | 1049600 | dense_5      |
| dense_7 (Dense)   | (None, 62)   |   63550 | dense_6      |


Total params: 7,410,750

Trainable params: 7,410,750

Non-trainable params: 0


** Evaluation

394/394 - 2s - loss: 1.2350 - accuracy: 0.6844

** Trainingsausgabe

Epoch 1/5

1576/1576 [==============================] - 21s 13ms/step - loss: 3.3637 - accuracy: 0.1023

Epoch 2/5

1576/1576 [==============================] - 20s 13ms/step - loss: 1.3336 - accuracy: 0.5867

Epoch 3/5
…
