#+TITLE: Softcomputing



* Model

CNN-Model für 256x32 Bilder mit zusätzlicher Dense-Layer für jedes Output trainiert mit 200 Ordnern.



** Model-Summary

| Layer (type)      | Output Shape | Param # | Connected to |
|-------------------+--------------+---------+--------------|
| flatten (Flatten) | (None, 1024) |       0 |              |
| dense (Dense)     | (None, 1024) | 1049600 | flatten      |
| dense_1 (Dense)   | (None, 1024) | 1049600 | dense        |
| dense_2 (Dense)   | (None, 1024) | 1049600 | dense_1      |
| dense_3 (Dense)   | (None, 1024) | 1049600 | dense_2      |
| dense_4 (Dense)   | (None, 1024) | 1049600 | dense_3      |
| dense_5 (Dense)   | (None, 1024) | 1049600 | dense_4      |
| dense_6 (Dense)   | (None, 62)   |   63550 | dense_5      |


Total params: 6,361,150

Trainable params: 6,361,150

Non-trainable params: 0


** Evaluation

394/394 - 2s - loss: 1.2158 - accuracy: 0.6880

** Trainingsausgabe

Epoch 1/5

1576/1576 [==============================] - 18s 11ms/step - loss: 2.8792 - accuracy: 0.1980

Epoch 2/5

1576/1576 [==============================] - 18s 11ms/step - loss: 1.0697 - accuracy: 0.6557

Epoch 3/5
…
